hw4/model.pth (torch, 881461 bytes, 20 tensors)

weight f4 [9, 3, 3, 3]
-0.051811114 -0.09858524 -0.16185786 0.227785 0.09959452 -0.13893253 0.13052134 -0.04327907
-0.15770435 0.01824756 -0.16298084 0.2206694 0.09741107 0.08995898 -0.041451737 0.06919087
-0.020853534 -0.08075485 -0.19685945 0.068594046 -0.09466523 -0.072216965 0.11842441 0.043981664
0.11797598 0.041036908 -0.009016658 0.17052728 -0.043724366 -0.0063092844 0.0045632115 -0.0023965589
-0.12622133 -0.026524434 0.022125073 0.15524727 -0.07094715 -0.098196775 -0.08687154 -0.07089668
0.021671187 -0.1365868 -0.1563236 0.18061176 0.056940775 -0.109629594 -0.26953664 0.12907495
-0.19499633 0.022826537 0.037966307 0.12157797 0.22505024 0.11643391 0.08036028 0.1239103
0.104967855 -0.04511376 -0.004052753 0.14170359 0.0483322 0.028627627 -0.10759469 -0.06573685
0.049041055 0.16255707 -0.09236274 -0.13438454 0.22562219 0.17142129 0.022909999 -0.12935925
-0.20921999 -0.17980589 -0.16736169 0.049521845 -0.04370679 0.024524989 -0.070291646 -0.035535354
-0.0069302935 0.28068155 -0.10292928 0.06837263 0.033947602 -0.16408195 0.1518503 0.0029315662
-0.10811718 0.02448244 0.12800038 -0.18359809 -0.17510916 0.045537654 -0.14576927 -0.0029563361
0.12675211 -0.1420154 0.093225606 0.04143084 -0.04583404 0.036126748 0.048817564 -0.04328626
-0.19174325 0.27467254 0.023428416 -0.17915645 -0.02552214 -0.17297351 0.06921599 -0.10531796
0.21152915 0.24314167 0.1803631 -0.120946236 -0.19123049 0.09458484 0.05440861 0.098590925
-0.035007298 -0.189013 -0.04386801 0.08445914 -0.22812027 -0.06993199 -0.01292015 -0.077295445
0.17524457 -0.05100635 -0.030944532 0.0914366 -0.037513394 -0.009137489 0.10212597 -0.12744693
0.06212377 0.102717 -0.13518308 -0.20262313 0.12337252 -0.19243032 0.13523076 -0.19281061
-0.15774877 -0.17328312 -0.029869877 0.0049833874 -0.02520678 -0.042450808 0.056592315 0.12684795
-0.22925071 -0.011676077 -0.039703146 0.17917186 -0.05102738 -0.04583957 -0.12019263 0.012427963
-0.046333704 -0.14955443 0.26663864 -0.13909474 -0.15443307 0.13775426 -0.13691932 -0.004629787
-0.02255115 -0.048926964 0.029048203 -0.051988047 0.030326243 -0.2108178 0.009358123 0.09698467
0.17788827 -0.15474921 0.060142864 0.15798889 0.054633632 -0.17638175 0.052063107 -0.0726135
0.08136028 0.20475072 -0.016771803 -0.03858571 -0.09989003 -0.12473278 0.070196114 -0.045730002
0.11937194 -0.14373745 -0.013190795 -0.050450705 -0.03906499 0.17186229 -0.13236302 0.08445027
-0.10927009 0.15988073 0.12887694 0.06258048 -0.21079975 -0.0974666 0.21759576 -0.01316521
-0.12484577 0.093745716 0.33239296 0.12414839 -0.08712432 0.07991781 0.09307661 0.15722425
0.080375485 -0.06483791 -0.104750246 -0.070196 -0.14639054 -0.062971875 0.06449402 -0.15029874
-0.11305544 -0.007712466 -0.13821116 -0.03329397 -0.01037692 -0.10314178 -0.07715653 -0.07564981
-0.08518517 -0.068795726 -0.01804499 0.059774853 0.14085618 -0.033491116 -0.07862353 -0.028981593
-0.0067424835 0.03208864 -0.11659164
00000000: e437 54bd 0fe7 c9bd 11be 25be 7940 693e
00000010: 36f8 cb3d 5444 0ebe 63a7 053e 6545 31bd
00000020: 407d 21be e87b 953c 73e4 26be 29f7 613e
00000030: 747f c73d 6a3c b83d 4cc9 29bd f1b3 8d3d
00000040: 08d5 aabc cc62 a5bd 8695 49be 097b 8c3d
00000050: d8df c1bd 7de6 93bd 7f88 f23d 1e26 343d
00000060: 649d f13d 5116 283d 9bba 13bc b49e 2e3e
00000070: 5218 33bd 1dbe cebb fe86 953b 960f 1dbb
00000080: 2a40 01be c549 d9bc a43f b53c 24f9 1e3e
00000090: bd4c 91bd 641b c9bd b5e9 b1bd 4732 91bd
000000a0: c687 b13c 69dd 0bbe 4b13 20be 4af2 383e
000000b0: bb3a 693d 7b85 e0bd b500 8abe 392c 043e
000000c0: 1ead 47be b8fe ba3c 8f82 1b3d dffd f83d
000000d0: 9273 663e e774 ee3d ee93 a43d afc4 fd3d
000000e0: 63f9 d63d 35c9 38bd f5cc 84bb bf1a 113e
000000f0: fcf7 453d 7c84 ea3c 9b5a dcbd 0ba1 86bd
00000100: 46df 483d 5c75 263e ad28 bdbd 1a9c 09be
00000110: 8109 673e 1089 2f3e c0ad bb3c c076 04be
00000120: c43d 56be 091f 38be dd60 2bbe 6bd7 4a3d
00000130: e405 33bd a1e8 c83c 11f5 8fbd 858d 11bd
00000140: 8417 e3bb 7eb5 8f3e 96cc d2bd f306 8c3d
00000150: a40c 0b3d 1905 28be a57e 1b3e 851f 403b
00000160: 8a6c ddbd 668f c83c 8812 033e 2301 3cbe
00000170: d14f 33be b185 3a3d 8a44 15be 17bf 41bb
00000180: 4ecb 013e 7c6c 11be 11ed be3d 62b3 293d
00000190: 79bc 3bbd a4f9 133d edf4 473d ef4c 31bd
000001a0: 5858 44be e1a1 8c3e f3ec bf3c ca74 37be
000001b0: cf13 d1bc f81f 31be 1dc1 8d3d f1b0 d7bd
000001c0: 199b 583e 21fa 783e 1bb1 383e a9b2 f7bd
000001d0: edd1 43be b2b5 c13d 90db 5e3d 0aea c93d
000001e0: d063 0fbd a08c 41be f1ae 33bd eaf8 ac3d
000001f0: 5c98 69be 8138 8fbd 09af 53bc 134d 9ebd
00000200: 5073 333e 09ec 50bd 637f fdbc 1d43 bb3d
00000210: a5a7 19bd 68b5 15bc 6c27 d13d 7381 02be
00000220: 7f75 7e3d 4a5d d23d 6f6d 0abe 707c 4fbe
00000230: bbaa fc3d 740c 45be ef79 0a3e 2570 45be
00000240: e588 21be 2171 31be acb1 f4bc af4b a33b
00000250: 737e cebc e6e0 2dbd 58cd 673d 6ee4 013e
00000260: b3c0 6abe 044d 3fbc c49f 22bd d478 373e
00000270: 1602 51bd 46c2 3bbd 8e27 f6bd a89e 4b3c
00000280: 69c8 3dbd cc24 19be dc84 883e da6e 0ebe
00000290: b423 1ebe 740f 0d3e 9434 0cbe 78b5 97bb
000002a0: 30bd b8bc a467 48bd 7ff6 ed3c 6bf1 54bd
000002b0: be6e f83c 9fe0 57be d052 193c e69f c63d
000002c0: 5828 363e 9476 1ebe 5d58 763d d7c7 213e
000002d0: 84c7 5f3d 6b9d 34be 2040 553d 63b6 94bd
000002e0: 38a0 a63d 2caa 513e 0565 89bc 0d0c 1ebd
000002f0: 2593 ccbd e673 ffbd fbc2 8f3d 624f 3bbd
00000300: 4779 f43d e92f 13be 341e 58bc 66a5 4ebd
00000310: 9c02 20bd abfc 2f3e 2c8a 07be 43f4 ac3d
00000320: ffc8 dfbd c6b7 233e 51f8 033e 322a 803d
00000330: e4db 57be 929c c7bd 6cd1 5e3e e5b2 57bc
00000340: 24af ffbd c1fd bf3d 692f aa3e 8341 fe3d
00000350: 3c6e b2bd f3ab a33d f39e be3d 65ff 203e
00000360: e79b a43d bdc9 84bd 4c87 d6bd ecc2 8fbd
00000370: 67e7 15be 66f7 80bd 7115 843d eae7 19be
00000380: 9c89 e7bd dbb8 fcbb 3a87 0dbe 425f 08bd
00000390: f503 2abc ff3b d3bd 3e04 9ebd 4aee 9abd
000003a0: 9075 aebd c6e4 8cbd 16d3 93bc 7ad6 743d
000003b0: 9a3c 103e fb2d 09bd 6005 a1bd ce6a edbc
000003c0: 0df0 dcbb 616f 033d 99c7 eebd

bias f4 [9]
0.0913293 0.024304226 0.07470982 0.03295968 0.077417396 -0.055448115 0.093309 0.0015593292
-0.029486476
00000000: db0a bb3d a819 c73c 7601 993d bb00 073d
00000010: 038d 9e3d 901d 63bd ca18 bf3d 6862 cc3a
00000020: 9f8d f1bc

weight f4 [6, 9, 4, 4]
0.034703646 -0.089925766 -0.14362419 -0.1292969 0.007829262 0.020730237 0.08055733 -0.013094675
0.04459614 0.0912842 0.15598026 0.07992464 -0.1021544 -0.04562395 -0.08954914 -0.02552947
0.087628126 0.014230171 0.000762068 0.0281017 -0.09453701 -0.026903672 -0.0064898618 -0.07530723
0.05262715 -0.05034927 0.049162928 0.03110343 -0.035025403 0.017652871 0.049269993 -0.012599742
-0.06102077 -0.02273758 -0.15033534 -0.10931748 -0.051725797 -0.039938305 0.0033600726 0.01849359
-0.08433507 0.076583534 -0.059837706 -0.08434724 0.0032809353 0.09002122 0.00080341205 0.13820437
-0.06661765 -0.006228809 -0.09124763 0.045415375 -0.11419356 -0.082983695 -0.03704489 -0.087144956
0.039344363 -0.1176804 -0.08221946 -0.021551711 0.071988165 -0.03398831 0.005110607 0.04440979
0.014810561 -0.014436278 -0.026507609 -0.056618147 -0.10347955 -0.17734781 0.07507466 0.1523973
-0.05374469 -0.0527955 0.083508514 0.018852128 0.036754087 0.042783357 0.027211478 0.059424825
-0.022468165 0.0343131 -0.032876812 -0.009814705 -0.05159799 0.043009207 0.013530549 -0.020233454
0.008552584 -0.009678495 0.0024362814 -0.0008979507 -0.0441277 0.050112538 -0.04860796 -0.046774227
0.03975831 -0.11473836 0.005744828 0.0052265166 0.04901634 0.019779611 0.018630177 -0.1027825
0.056361303 0.0799672 0.034798436 -0.02472718 -0.10371129 -0.06285983 -0.0028923287 0.06066566
0.06574578 0.07376408 -0.0027510813 0.08877457 0.053947292 -0.0103525175 -0.031200789 -0.06723719
0.055068802 0.06880757 -0.064517796 -0.033861846 -0.032743786 0.034636732 -0.09133488 -0.059246562
0.015922008 0.030814204 -0.08347019 0.021139186 0.0010534762 0.010894464 -0.016163388 0.01977171
0.019410258 0.016476292 0.0747933 0.029339066 0.0071162004 -0.04745152 -0.02570722 -0.05919587
0.011006235 -0.0017534761 0.048896868 -0.016394721 -0.13985308 -0.022285866 -0.050719738 -0.07005415
-0.062547125 0.03953143 0.024276754 0.044512656 0.13027257 0.04747798 0.034677662 -0.047565218
-0.06426446 -0.17702939 -0.0482154 -0.026863288 -0.05200278 0.13777749 -0.050461754 0.057942983
-0.0047183037 -0.047628514 0.09501917 -0.078387335 0.120589085 0.06120325 -0.008317644 0.032097027
-0.030295357 0.06314989 -0.04247844 -0.0971701 -0.10581743 -0.115008876 0.025702761 0.026248574
0.14332345 0.0005679537 0.07541515 0.07920364 0.083357155 0.04967483 -0.05162902 0.0555776
-0.122924924 -0.029565295 -0.0047718636 -0.05792669 -0.022346199 -0.030216463 0.054267455 0.020910325
0.03631506 -0.08444682 0.014262721 -0.10450296 0.017672567 0.05542192 -0.041196264 -0.0025678533
-0.06687552 -0.022203846 0.19853796 0.00051029015 0.06867553 -0.19951212 0.014426735 0.043154605
0.18470454 -0.03713398 -0.036019437 -0.046904225 -0.08610087 0.020421522 0.0485476 -0.14415325
0.000877324 -0.09963954 -0.120580345 -0.14070228 0.014132604 -0.119254716 -0.04226471 -0.009927157
-0.028532496 0.034962557 -0.0018275174 -0.006657718 -0.13046552 -0.05686075 -0.09029917 0.021368163
-0.06628727 0.033171605 -0.03176034 -0.004587339 0.108730234 -0.100103185 -0.10296376 0.087828495
0.06255899 0.16466229 0.12416318 0.0011658806 -0.16379672 -0.13395022 -0.050348386 0.027252754
00000000: 6925 0e3d 002b b8bd 3812 13be 6866 04be
00000010: 4e46 003c 75d2 a93c 3efb a43d 0c8b 56bc
00000020: 71aa 363d 36f3 ba3d 4ab9 1f3e 88af a33d
00000030: 5336 d1bd 2ee0 3abd 8a65 b7bd 2e23 d1bc
00000040: 6076 b33d aa25 693c 85c5 473a 8935 e63c
00000050: 9f9c c1bd 1765 dcbc e8a8 d4bb ad3a 9abd
00000060: 918f 573d 093b 4ebd 115f 493d 9fcc fe3c
00000070: cc76 0fbd c19c 903c 55cf 493d 266f 4ebc
00000080: eaf0 79bd 2944 babc 82f1 19be d8e1 dfbd
00000090: 6ede 53bd 5996 23bd aa34 5c3b df7f 973c
000000a0: ddb7 acbd d4d7 9c3d 6218 75bd 3fbe acbd
000000b0: f604 573b 0c5d b83d 129c 523a 7285 0d3e
000000c0: d66e 88bd 091b ccbb 0ae0 babd 7905 3a3d
000000d0: 50de e9bd 5bf3 a9bd 62bc 17bd 0e79 b2bd
000000e0: 8e27 213d 6c02 f1bd ad62 a8bd 378d b0bc
000000f0: 886e 933d 5337 0bbd e176 a73b 0ae7 353d
00000100: ffa7 723c 2386 6cbc 7c26 d9bc 6ee8 67bd
00000110: 16ed d3bd aa9a 35be bec0 993d 0a0e 1c3e
00000120: 6423 5cbd 1840 58bd 8306 ab3d c76f 9a3c
00000130: 748b 163d 9a3d 2f3d 9bea de3c 7267 733d
00000140: 280f b8bc e58b 0c3d d6a9 06bd dbcd 20bc
00000150: 6a58 53bd 6c2a 303d 3caf 5d3c a1c0 a5bc
00000160: 2320 0c3c 8d92 1ebc 05aa 1f3b 7464 6bba
00000170: 3fbf 34bd ce42 4d3d 2419 47bd 5596 3fbd
00000180: 9cd9 223d f2fb eabd 1c3f bc3b 3343 ab3b
00000190: 5cc5 483d da08 a23c 509e 983c a27f d2bd
000001a0: 1cdb 663d d8c5 a33d ce88 0e3d a890 cabc
000001b0: 9666 d4bd a8bc 80bd 398d 3dbb 8e7c 783d
000001c0: b9a5 863d 9f11 973d 7c4b 34bb 71cf b53d
000001d0: d6f7 5c3d 9b9d 29bc cc98 ffbc a7b3 89bd
000001e0: d38f 613d fcea 8c3d e821 84bd b8b2 0abd
000001f0: 591e 06bd 3fdf 0d3d c80d bbbd 86ac 72bd
00000200: df6e 823c 126e fc3c 6bf2 aabd 162c ad3c
00000210: cc14 8a3a b27e 323c 1569 84bc 48f8 a13c
00000220: 4302 9f3c 4af9 863c 3b2d 993d 7b58 f03c
00000230: 042f e93b 865c 42bd f397 d2bc 5e77 72bd
00000240: 7f53 343c e5d4 e5ba 1548 483d 394e 86bc
00000250: a535 0fbe d990 b6bc 80bf 4fbd 8d78 8fbd
00000260: b518 80bd b5eb 213d 0be0 c63c e752 363d
00000270: 2c66 053e 4578 423d 2a0a 0e3d bfd3 42bd
00000280: 169d 83bd 3147 35be 837d 45bd 6610 dcbc
00000290: de00 55bd 8b15 0d3e fcb0 4ebd 9f55 6d3d
000002a0: 009c 9abb 1e16 43bd 6999 c23d 8a89 a0bd
000002b0: 69f7 f63d 42b0 7a3d ba46 08bc 2c78 033d
000002c0: f82d f8bc bb54 813d dffd 2dbd 1e01 c7bd
000002d0: cfb6 d8bd c689 ebbd 998e d23c 4007 d73c
000002e0: 62c3 123e bae2 143a 4273 9a3d 8535 a23d
000002f0: 28b7 aa3d d677 4b3d f478 53bd 56a5 633d
00000300: 10c0 fbbd eb32 f2bc 4b5d 9cbb 8944 6dbd
00000310: 600f b7bc 8488 f7bc 8d47 5e3d 214c ab3c
00000320: 1abf 143d 74f2 acbd 30ae 693c a605 d6bd
00000330: 0fc6 903c 1802 633d 6abd 28bd 6e49 28bb
00000340: 08f6 88bd d7e4 b5bc 894d 4b3e fec4 053a
00000350: c2a5 8c3d e84c 4cbe 1d5e 6c3c e2c2 303d
00000360: 3023 3d3e cd19 18bd 1e89 13bd a51e 40bd
00000370: a755 b0bd 094b a73c d9d9 463d e99c 13be
00000380: 38fc 653a d10f ccbd d4f2 f6bd 4214 10be
00000390: 708c 673c d13b f4bd c31d 2dbd 84a5 22bc
000003a0: fbbc e9bc e634 0f3d 4f89 efba fd28 dabb
000003b0: c198 05be d1e6 68bd c5ee b8bd 490c af3c
000003c0: 9fc1 87bd f3de 073d 2117 02bd 6351 96bb
000003d0: f5ad de3d e602 cdbd aade d2bd 6ddf b33d
000003e0: ee1e 803d 3b9d 283e 4449 fe3d 76d0 983a
000003f0: 54ba 27be 3f2a 09be 1c3a 4ebd 2b41 df3c

bias f4 [6]
-0.03399082 0.10960173 0.1878472 -0.049221132 0.016607909 0.10759497
00000000: f539 0bbd df76 e03d 045b 403e 199c 49bd
00000010: 4f0d 883c c05a dc3d

weight f4 [5, 6, 4, 4]
0.101352856 0.011063126 0.097597994 0.09090859 0.0472605 -0.010824493 0.0154071245 -0.0664756
0.052305885 -0.053914577 -0.05254983 -0.12808378 0.07673616 -0.033233814 0.07513805 0.065614805
-0.036540117 0.06744009 0.060940657 0.037768874 -0.0055788876 -0.01956587 -0.073901504 0.1235441
0.023854006 -0.040304013 0.04680405 -0.02707949 -0.11617104 0.056896716 -0.054080717 -0.0048693814
0.04145448 0.08098346 0.03178879 0.119587734 0.01898076 0.1072833 0.00852057 0.21488105
-0.13455461 -0.037703052 -0.09116348 -0.02189064 0.039409902 0.094203204 -0.052190676 0.021392472
-0.06943364 -0.044347487 -0.09431694 0.010485811 -0.107959725 -0.08035937 0.026377669 -0.12650356
0.038966402 0.033680122 -0.042397864 0.06956706 0.07508602 0.041869458 0.07191222 0.054894734
0.058605146 -0.02078089 0.0698071 0.041640144 -0.029265715 0.005927984 -0.012577156 -0.087258704
0.015075223 -0.04484453 -0.058495447 -0.12090155 0.04973782 -0.01696441 0.01623866 -0.011634973
-0.03051236 0.03946022 0.0068534343 -0.10535585 0.0572323 -0.013821377 0.10254357 0.030088304
-0.24549897 -0.23189405 -0.19308592 -0.14914732 0.07181421 0.06303217 0.10246452 -0.038581397
-0.06408453 0.12350035 -0.020054221 -0.053639762 -0.05375383 -0.11318997 0.11474905 -0.08123244
0.038989596 -0.12159257 -0.09176262 -0.0016969766 0.04712392 -0.048486352 -0.015994538 -0.042927705
-0.08258285 0.14245541 -0.017342836 -0.025808688 -0.22304238 0.0034527387 0.13870579 0.04714886
0.03835264 -0.24251258 -0.016528055 0.11903251 -0.020965168 0.07457522 -0.08723304 0.050122645
0.011859021 -0.009951407 0.060771782 -0.019681238 -0.035847977 -0.1183765 0.08651391 0.059443597
0.021193715 -0.13860793 0.08582097 0.011017658 0.044398904 -0.09158035 -0.09506599 -0.007417428
0.09519419 -0.11656638 0.047125913 -0.019026104 0.050194044 0.023799103 -0.054908667 0.040255763
-0.08773859 0.10212572 0.008880436 0.097578794 -0.13306208 -0.09638548 -0.043617446 -0.07429684
-0.06137034 0.09552556 0.04179349 -0.061891843 -0.17532693 0.022377213 0.044195086 0.029465143
-0.13431473 -0.015278343 0.014901675 -0.05381963 0.0789144 -0.13542798 -0.07187325 -0.054299142
0.028814344 -0.120659694 -0.03840055 0.04908269 0.040009905 0.05348692 -0.1534643 0.063424945
-0.03373851 0.11963082 -0.07667175 -0.07817239 -0.037961964 0.04626783 0.078515306 -0.021314424
0.023838213 -0.032784525 -0.14680684 -0.06614438 -0.056687973 -0.15821756 0.05133211 0.036841515
-0.1572237 0.14393954 0.03404915 -0.05500539 0.011414478 0.052395213 -0.05549657 0.040184468
-0.031050565 -0.07706987 -0.103326224 -0.091419585 -0.18916288 -0.058600362 0.042313088 -0.015999665
0.10996613 -0.06407368 -0.051487226 0.15930077 0.041359063 -0.044145137 0.11409761 -0.024229936
0.14737204 0.13769236 0.06242519 -0.18270062 -0.009083236 0.12577085 -0.14094976 0.048284728
-0.016489498 -0.038045887 -0.10386943 0.13094334 -0.054485984 -0.09611565 0.07429682 -0.05434382
0.05631023 -0.12844656 0.03961272 0.113557816 -0.17492534 0.0978604 0.108968504 -0.06714785
0.020219883 0.093982354 -0.07533059 -0.07886218 0.10770842 -0.02853551 -0.11324553 0.12322722
00000000: 1692 cf3d 1d42 353c 75e1 c73d 482e ba3d
00000010: 3a94 413d 3759 31bc 2a6e 7c3c 5c24 88bd
00000020: b23e 563d 88d5 5cbd 7e3e 57bd 6528 03be
00000030: d927 9d3d 2e20 08bd fae1 993d 0e61 863d
00000040: 17ab 15bd 081e 8a3d e99c 793d 89b3 1a3d
00000050: 1acf b6bb 9a48 a0bc ac59 97bd b004 fd3d
00000060: 7a69 c33c d215 25bd 9bb5 3f3d ced5 ddbc
00000070: 15eb edbd 880c 693d be83 5dbd 558f 9fbb
00000080: 2ccc 293d a8da a53d f634 023d 6aea f43d
00000090: 8a7d 9b3c 59b7 db3d dc99 0b3c c709 5c3e
000000a0: afc8 09be 846e 1abd ebb3 babd 0054 b3bc
000000b0: 476c 213d 9ced c03d e4c5 55bd 443f af3c
000000c0: 3933 8ebd b6a5 35bd 3d29 c1bd aecc 2b3c
000000d0: fd19 ddbd 7493 a4bd fb15 d83c 268a 01be
000000e0: 3c9b 1f3d 2bf4 093d 62a9 2dbd 2d79 8e3d
000000f0: b3c6 993d 4f7f 2b3d b746 933d 4dd9 603d
00000100: f30b 703d af3c aabc 06f7 8e3d db8e 2a3d
00000110: a7be efbc 893f c23b 6a10 4ebc b1b4 b2bd
00000120: 11fe 763c e6ae 37bd ec98 6fbd 3b9b f7bd
00000130: e2b9 4b3d f2f8 8abc f006 853c 9da0 3ebc
00000140: 0ff5 f9bc 0aa1 213d c692 e03b cfc4 d7bd
00000150: 6b6c 6a3d 0f73 62bc 5d02 d23d bf7b f63c
00000160: 1564 7bbe a275 6dbe 51b8 45be 13ba 18be
00000170: 5413 933d 0317 813d ebd8 d13d 8707 1ebd
00000180: c03e 83bd c0ed fc3d c048 a4bc 5eb5 5bbd
00000190: fa2c 5cbd 25d0 e7bd 8d01 eb3d 325d a6bd
000001a0: 8eb3 1f3d 8605 f9bd 0aee bbbd 166d deba
000001b0: 0305 413d a099 46bd fa06 83bc f6d4 2fbd
000001c0: 3221 a9bd d5df 113e 9012 8ebc be6c d3bc
000001d0: 3965 64be 5847 623b e408 0e3e 2a1f 413d
000001e0: a817 1d3d 3855 78be d865 87bc 51c7 f33d
000001f0: 25bf abbc e5ba 983d 3ca7 b2bd 674d 4d3d
00000200: 574c 423c 3a0b 23bc d5eb 783d 8c3a a1bc
00000210: 54d5 12bd 616f f2bd 342e b13d 217b 733d
00000220: 719e ad3c 3def 0dbe e8c2 af3d 6883 343c
00000230: a0db 353d 7b8e bbbd f5b1 c2bd e50d f3bb
00000240: 2cf5 c23d 5bba eebd 1a07 413d a2dc 9bbc
00000250: 4598 4d3d 56f6 c23c e9e7 60bd 3ae3 243d
00000260: 4ab0 b3bd 4a27 d13d 407f 113c 64d7 c73d
00000270: 6d41 08be c065 c5bd 35a8 32bd f128 98bd
00000280: 775f 7bbd e8a2 c33d a72f 2b3d 4d82 7dbd
00000290: e788 33be 6b50 b73c e805 353d e260 f13c
000002a0: cd89 09be 0452 7abc 2826 743c f971 5cbd
000002b0: df9d a13d a2ad 0abe 4832 93bd c768 5ebd
000002c0: 0f0c ec3c 6e1c f7bd e549 1dbd ee0a 493d
000002d0: 6de1 233d 1a15 5b3d bf25 1dbe f0e4 813d
000002e0: 6431 0abd 0101 f53d 1406 9dbd d918 a0bd
000002f0: 017e 1bbd 5683 3d3d a2cc a03d 969b aebc
00000300: 5b48 c33c 1149 06bd 8854 16be b476 87bd
00000310: a631 68bd c903 22be 9e41 523d 21e7 163d
00000320: 40ff 20be e364 133e 1f77 0b3d 554d 61bd
00000330: ca03 3b3c 5d9c 563d 5f50 63bd 7898 243d
00000340: c15d febc cfd6 9dbd b39c d3bd 313a bbbd
00000350: eab3 41be ef06 70bd 7d50 2d3d bb11 83bc
00000360: ec35 e13d 1039 83bd 45e4 52bd be1f 233e
00000370: 1f68 293d 88d1 34bd 02ac e93d dc7d c6bc
00000380: b2e8 163e 3aff 0c3e 8eb1 7f3d df15 3bbe
00000390: dad1 14bc 13ca 003e 2255 10be 35c6 453d
000003a0: fc14 87bc 01d6 1bbd 7fb9 d4bd 0316 063e
000003b0: b22c 5fbd 48d8 c4bd ee28 983d a097 5ebd
000003c0: 8ea5 663d 7f87 03be f340 223d 0091 e83d
000003d0: a11f 33be 096b c83d e12a df3d d084 89bd
000003e0: 2ba4 a53c d279 c03d ed46 9abd 7f82 a1bd
000003f0: 3b96 dc3d 4dc3 e9bc 46ed e7bd 8d5e fc3d

bias f4 [5]
-0.15789312 0.23931561 0.11555366 0.09924313 0.053552467
00000000: bcae 21be 270f 753e 66a7 ec3d fb3f cb3d
00000010: d559 5b3d

weight f4 [256, 720]
0.011464668 0.018482573 -0.022658976 0.015511721 0.0072228173 -0.009526805 0.0026052783 -0.031249722
0.015175367 -0.04057709 0.0020512783 -0.010387739 -0.034270056 0.0119905425 -0.034254134 0.013307641
-0.025118733 -0.024972448 -0.009802294 -0.011958331 -0.016199315 0.02813039 -0.0026553534 0.002337455
-0.01215896 -0.019695953 0.013713244 -0.004025639 0.011757398 0.03055116 -0.007996333 -0.011330611
-0.010360636 0.008222794 -0.01581995 0.00025004538 -0.034116987 -0.024340378 0.031058691 0.010682563
-0.009032458 -0.008343569 -0.041316535 -0.029404936 0.026389932 -0.021711523 -0.0077169016 -0.037987713
-0.015582019 -0.00954656 -0.0072937883 -0.0014587485 -0.023475796 0.016027382 -0.012324706 0.00025661607
-0.038783967 0.0121825375 -0.031065166 -0.035771847 0.00083955145 0.019128686 0.009241249 -0.026509939
-0.011461673 -0.0331667 -0.030680872 -0.040098205 -0.028614407 0.02045713 -0.013766155 0.013720817
0.014486375 0.024106504 -0.040289853 -0.02069982 -0.021665173 0.025508137 -0.025720116 -0.027135199
-0.0028775895 0.026468592 0.025247913 -0.009831257 -0.036455963 -0.043220825 0.019534873 -0.030676613
0.020855913 0.004115611 0.0045101726 -0.020201065 -0.011550002 -0.032312863 0.014890278 -0.009464534
-0.017949227 -0.025640741 -0.014080008 -0.0125401905 -0.018748755 -0.00981993 -0.02650272 -0.039173752
-0.034831695 0.014395877 0.024135802 -0.043181192 0.007210609 0.0144468015 0.02874907 -0.014252654
-0.03411037 -0.018569542 -0.037882596 -0.032266956 -0.03411802 0.018720988 0.013544238 -0.021418493
0.016732063 0.026891055 0.016174309 -0.0024734836 -0.00013481491 -0.028205136 -0.03143657 -0.013984536
-0.011379405 -0.029128082 -0.01761673 0.0030242023 -0.027020093 -0.03588215 0.014711387 0.020800909
0.0057655335 -0.0064478735 -0.01596364 -0.032460187 0.017319722 -0.0036349734 0.027493998 -0.03149727
0.00022113265 -0.0044488353 -0.038308218 -0.0039454056 0.013140457 -0.039419815 -0.0215773 -0.040663924
-0.020723201 -0.016281473 -0.007824246 0.018223992 -0.004997826 0.014944294 0.01764315 -0.041504543
-0.0228013 -0.014657573 0.0178862 0.01705024 -0.022329783 -0.034136 -0.00382967 -0.0015924905
-0.0033005408 0.024804907 0.024385314 0.02544608 0.011690584 0.02538445 0.0023074793 0.019813389
0.030352645 -0.03546258 0.030193383 -0.041523796 0.017343463 -0.022409528 -0.03416502 0.011386563
0.012337843 0.0035278043 0.01709784 0.022170817 -0.0031387038 0.022891961 0.011686547 0.00686727
-0.016577281 -0.012976519 0.024703136 -0.012897434 0.034827594 -0.0057155057 0.024601152 -0.003820353
0.014031578 -0.014304954 -0.035015095 0.000944673 0.025857197 0.0056857266 -0.0032057716 0.029187474
-0.00017659599 -0.0075764125 -0.0053160577 0.025052652 -0.008223796 -0.0060240845 0.02363804 0.005734714
-0.027909424 -0.036124688 -0.006114267 0.007413249 0.02818629 0.022462362 0.017937798 -0.02640164
0.028291741 0.0023373857 0.01942055 -0.03290075 0.018325135 0.008652057 0.024143275 0.015850773
-0.019794822 -0.03959085 0.005808827 -0.028110519 -0.01509141 -0.036261473 0.016144488 0.025792181
-0.002840226 0.017288161 -0.03065307 -0.026537359 0.005302213 -0.028812949 -0.03531261 -0.009835388
-0.025139662 -0.022321355 0.016775146 -0.015704826 -0.041240577 -0.0025703278 -0.034645993 0.014986279
00000000: 4ed6 3b3c c468 973c 519f b9bc e024 7e3c
00000010: 62ad ec3b 5116 1cbc 51bd 2a3b 6bff ffbc
00000020: 1aa2 783c 2a34 26bd bd6e 063b 5631 2abc
00000030: c25e 0cbd fb73 443c 104e 0cbd 4b08 5a3c
00000040: cdc5 cdbc 0593 ccbc cd99 20bc e0ec 43bc
00000050: 6db4 84bc b471 e63c 7005 2ebb fd2f 193b
00000060: 6036 47bc 6859 a1bc 84ad 603c 82e9 83bb
00000070: 1aa2 403c 6d46 fa3c 0d03 03bc 07a4 39bc
00000080: a8bf 29bc e6b8 063c d798 81bc 8618 8339
00000090: 41be 0bbd 7965 c7bc cc6e fe3c eb05 2f3c
000000a0: e0fc 13bc 77b3 08bc 873b 29bd 9fe2 f0bc
000000b0: b32f d83c 5ddc b1bc 10de fcbb 0199 1bbd
000000c0: ba4b 7fbc 2d69 1cbc bb00 efbb 7a33 bfba
000000d0: 5050 c0bc db4b 833c 90ed 49bc 6d8a 8639
000000e0: f0db 1ebd 4499 473c 607c febc 8085 12bd
000000f0: 5815 5c3a c3b3 9c3c 9c68 173c 5f2b d9bc
00000100: bec9 3bbc ced9 07bd 7456 fbbc 043e 24bd
00000110: c368 eabc b695 a73c 708b 61bc 47cd 603c
00000120: 4358 6d3c 017b c53c f906 25bd ab92 a9bc
00000130: 297b b1bc 71f6 d03c feb2 d2bc a34a debc
00000140: f195 3cbb a9d4 d83c b6d4 ce3c 4813 21bc
00000150: d952 15bd 5208 31bd 9907 a03c 854d fbbc
00000160: 05da aa3c 3fdc 863b 12ca 933b b47c a5bc
00000170: 383c 3dbc 7e5a 04bd 5af6 733c 2211 1bbc
00000180: 420a 93bc 880c d2bc d5af 66bc 5f75 4dbc
00000190: fd96 99bc c6e3 20bc 3b1c d9bc a874 20bd
000001a0: aeab 0ebd afdc 6b3c 72b8 c53c c3de 30bd
000001b0: f946 ec3b 47b2 6c3c 2b83 eb3c f783 69bc
000001c0: 51b7 0bbd 271f 98bc c82a 1bbd 5b2a 04bd
000001d0: 56bf 0bbd c25c 993c a7e8 5d3c d675 afbc
000001e0: ae11 893c a14a dc3c fc7f 843c 2b1a 22bb
000001f0: 1a5d 0db9 750e e7bc a2c3 00bd 651f 65bc
00000200: af70 3abc 049e eebc f650 90bc b231 463b
00000210: 3e59 ddbc 29f9 12bd 0808 713c ab66 aa3c
00000220: cdec bc3b af48 d3bb 2ec6 82bc f9f4 04bd
00000230: 17e2 8d3c bc38 6ebb 183b e13c 4803 01bd
00000240: d8df 6739 89c7 91bb 14e9 1cbd 7648 81bb
00000250: 124b 573c ac76 21bd e1c2 b0bc 378f 26bd
00000260: b4c3 a9bc b960 85bc 4431 00bc 7b4a 953c
00000270: cec4 a3bb e9d8 743c 5e88 903c ab00 2abd
00000280: cbc9 babc 5126 70bc 1586 923c f2ac 8b3c
00000290: f3ec b6bc 31d2 0bbd 33fb 7abb 1dbb d0ba
000002a0: e34d 58bb a933 cb3c b6c3 c73c 4c74 d03c
000002b0: dd89 3f3c 0df3 cf3c 1439 173b b04f a23c
000002c0: 1ca6 f83c 3641 11bd 1d58 f73c db14 2abd
000002d0: e113 8e3c 3094 b7bc 9ff0 0bbd b58e 3a3c
000002e0: aa24 4a3c bc32 673b c510 8c3c 939f b53c
000002f0: b6b2 4dbb ec87 bb3c ee78 3f3c d606 e13b
00000300: 14cd 87bc 779b 54bc 3b5e ca3c c24f 53bc
00000310: 61a7 0e3d 2349 bbbb 5b88 c93c e35e 7abb
00000320: b4e4 653c 535f 6abc fd6b 0fbd efa3 773a
00000330: 79d2 d33c 554f ba3b ec17 52bb 921a ef3c
00000340: a02c 39b9 8e43 f8bb 5332 aebb 383b cd3c
00000350: 1abd 06bc af65 c5bb 90a4 c13c 45ea bb3b
00000360: 4ea2 e4bc 7bf7 13bd 305a c8bb d7ea f23b
00000370: efe6 e63c fd02 b83c 4af2 923c 4148 d8bc
00000380: 15c4 e73c d32e 193b d817 9f3c f0c2 06bd
00000390: 981e 963c 5bc1 0d3c 1ec8 c53c 7bd9 813c
000003a0: c028 a2bc 042a 22bd f957 be3b 0848 e6bc
000003b0: f641 77bc e986 14bd 7241 843c 204a d33c
000003c0: 1623 3abb e79f 8d3c 261c fbbc e064 d9bc
000003d0: 30be ad3b 2209 ecbc f5a3 10bd 9b24 21bc
000003e0: b1f1 cdbc 46db b6bc 086c 893c 68a7 80bc
000003f0: e1eb 28bd f272 28bb f5e8 0dbd 0389 753c

bias f4 [256]
-0.022773027 -0.08602371 -0.03505289 -0.05233118 0.05965297 0.025404349 -0.013962841 -0.026006203
-0.010264344 0.0225816 -0.015596143 -0.010535537 0.039698705 -0.018870845 0.042038515 -0.01193549
0.015794512 0.001020448 -0.00035968563 0.037844993 0.008925608 -0.01937694 0.011870159 -0.010427725
-0.062070593 0.03385475 0.024424743 -0.07903823 -0.0016294341 0.029883858 0.008040621 -0.09247347
0.15717712 0.05081804 -0.0005292113 0.0038474817 0.09159527 -0.0019749776 -0.06172041 0.013266209
0.18379961 0.029223707 0.0025276877 -0.03311835 0.00919731 0.038913332 0.071527675 0.095056675
0.0029324987 0.012646715 0.043801 0.053525798 -0.024875822 0.0609914 -0.055466257 0.005969952
0.060842723 0.015427213 -0.043969158 0.020417377 -0.06584956 0.018208312 0.07050798 0.04883515
-0.0007537315 -0.0062567666 -0.01065012 0.016860327 0.049375623 0.0027796722 -0.009313345 0.12058484
0.038826995 -0.0070500365 -0.026778648 -0.01544888 0.020502096 0.012058362 0.01214176 -0.10992485
-0.05697088 -0.047736287 0.071272485 -0.06421536 0.09193683 0.0194763 0.06919925 -0.027090566
0.016983379 0.016942615 -0.03147151 -0.0347272 -0.05152385 -0.020133778 -0.03392104 0.005801475
-0.025796525 0.0050137565 -0.03453324 0.10451999 0.0062494427 0.0060982252 0.015869008 0.026169492
0.021896418 -0.0030526158 -0.016045002 -0.028622642 0.055980694 -0.012971836 0.16531041 -0.031187575
0.08228998 -0.07014398 0.06902985 -0.0640872 -0.014774488 -0.01218864 -0.04055789 -0.0008012603
0.015239967 0.10413124 -0.0053406777 0.05763251 0.035546426 -0.019764299 -0.010967988 -0.017711082
0.03500637 -0.030606227 -0.006524407 -0.0007389562 0.19286558 -0.021847846 -0.020364195 0.034045152
0.09902347 -0.020928757 -0.036000304 0.0058504203 0.0024671396 0.0064244033 -0.0010167208 0.01629738
0.07386574 0.015402558 0.038680132 0.008007635 -0.028911619 -0.009902504 0.025986942 0.00752917
-0.04347328 -0.030425608 0.036450274 -0.003716102 0.04651689 -0.0010993949 0.0074708457 0.05684894
-0.02893305 -0.057312958 0.002320516 -0.026386369 0.113188 0.09289925 0.0006369466 0.03212779
0.057330977 0.07706639 0.038613964 -0.056820385 0.020609565 -0.011029439 -0.040616393 0.016729178
-0.03927491 0.0023802272 -0.039946657 0.030369142 0.015225328 -0.027971009 0.049420685 0.1636851
-0.021085413 0.08967981 0.03698452 -0.07229185 -0.06506172 0.13684697 -0.059659544 -0.019955719
-0.025732609 0.0518062 -0.004781806 -0.043987352 0.05212249 0.0062451256 0.022309363 -0.049824085
0.08572673 -0.0016833929 0.012037557 -0.09383107 -0.037604116 0.0564708 0.0065128496 -0.053258207
0.10121494 -0.015394958 -0.013078801 0.0046287216 0.0040759114 -0.012602723 0.05178585 -0.03600963
0.15432459 0.024480615 0.08836582 -0.007058247 0.08337553 -0.026597943 -0.030861434 0.030288607
-0.012651863 -0.051079337 -0.033211056 0.011561003 -0.040105265 0.072799966 -0.04019816 0.0053625577
-0.0019139752 -0.008556174 -0.052319974 -0.0024500394 0.0050403136 -0.045555342 0.048144735 0.018414108
-0.0017439605 -0.0649482 -0.020948803 0.013033379 0.18485291 0.064254455 0.017480694 0.014163681
0.0123668425 0.010845598 0.04398823 -0.0015865251 0.0006835237 0.0777368 0.021438222 -0.04503095
00000000: 808e babc 332d b0bd 9f93 0fbd 3859 56bd
00000010: ac56 743d c81c d03c 66c4 64bc f60a d5bc
00000020: c72b 28bc 0cfd b83c f786 7fbc 3f9d 2cbc
00000030: 1c9b 223d 0897 9abc 9430 2c3d 138d 43bc
00000040: 7e63 813c 8ec0 853a 3094 bcb9 5a03 1b3d
00000050: b73c 123c 63bc 9ebc 0e7b 423c 0cd9 2abc
00000060: bc3d 7ebd 47ab 0a3d 6616 c83c ccde a1bd
00000070: bc92 d5ba fece f43c cfbc 033c bb62 bdbd
00000080: 0af3 203e 9426 503d c5ba 0aba 0826 7c3b
00000090: 4d96 bb3d a06e 01bb 8ace 7cbd 835a 593c
000000a0: f735 3c3e 8e66 ef3c 90a7 253b 1ba7 07bd
000000b0: 50b0 163c 9663 1f3d 1a7d 923d 13ad c23d
000000c0: 2a2f 403b 2b34 4f3c ad68 333d de3d 5b3d
000000d0: 61c8 cbbc 1ed2 793d 9630 63bd 969f c33b
000000e0: 3836 793d 6cc2 7c3c 0119 34bd 5842 a73c
000000f0: 22dc 86bd 9929 953c 7d66 903d 5e07 483d
00000100: 1196 45ba 9005 cdbb d77d 2ebc ab1e 8a3c
00000110: 183e 4a3d 292b 363b 0097 18bc 2ff5 f63d
00000120: 0e09 1f3d fe03 e7bb e55e dbbc 4d1d 7dbc
00000130: 03f4 a73c 7090 453c 3cee 463c 4820 e1bd
00000140: 4c5a 69bd 2087 43bd 4ff7 913d 5883 83bd
00000150: 6049 bc3d c38c 9f3c 56b8 8d3d 09ed ddbc
00000160: ba20 8b3c 3dcb 8a3c 45e8 00bd 1c3e 0ebd
00000170: ac0a 53bd 98ef a4bc caf0 0abd 4d1a be3b
00000180: 3c53 d3bc 704a a43b ba72 0dbd 940e d63d
00000190: 20c8 cc3b 9fd3 c73b b9ff 813c 6761 d63c
000001a0: 1e60 b33c 650e 48bb cf70 83bc 087a eabc
000001b0: 034c 653d d387 54bc 2247 293e 167d ffbc
000001c0: a687 a83d a6a7 8fbd 865f 8d3d 2640 83bd
000001d0: b210 72bc ddb2 47bc 0820 26bd ab0b 52ba
000001e0: 0eb1 793c c242 d53d da00 afbb 1110 6c3d
000001f0: 2199 113d bde8 a1bc 13b3 33bc d516 91bc
00000200: d762 0f3d e9b9 fabc b1ca d5bb 83b6 41ba
00000210: 8e7e 453e 41fa b2bc d0d2 a6bc ee72 0b3d
00000220: d1cc ca3d c972 abbc 0e75 13bd e2b4 bf3b
00000230: bcaf 213b cd83 d23b 7d43 85ba 1582 853c
00000240: ec46 973d 035b 7c3c 0f6f 1e3d 7532 033c
00000250: 0fd8 ecbc 1d3e 22bc 91e2 d43c 41b7 f63b
00000260: 0a11 32bd 203f f9bc e24c 153d d989 73bb
00000270: 7f88 3e3d 9219 90ba ffcd f43b 6fda 683d
00000280: 0105 edbc fec0 6abd cc13 183b 3a28 d8bc
00000290: 1ccf e73d f641 be3d c3f8 263a 6e98 033d
000002a0: e3d3 6a3d fcd4 9d3d ad29 1e3d 7ebc 68bd
000002b0: 64d5 a83c d2b4 34bc 605d 26bd a10b 893c
000002c0: bade 20bd 96fd 1b3b 1b9f 23bd b5c8 f83c
000002d0: a773 793c 7523 e5bc 586d 4a3d 119d 273e
000002e0: 51bb acbc 0caa b73d 147d 173d c00d 94bd
000002f0: 143f 85bd 9d21 0c3e 915d 74bd 2d7a a3bc
00000300: 31cd d2bc bd32 543d b2b0 9cbb 152c 34bd
00000310: 647e 553d e9a3 cc3b 20c2 b63c 5714 4cbd
00000320: 7f91 af3d 4ba5 dcba 2c39 453c 812a c0bd
00000330: c606 1abd ed4d 673d be69 d53b 4725 5abd
00000340: c749 cf3d 223b 7cbc 7848 56bc 88ac 973b
00000350: 398f 853b a77b 4ebc 661d 543d d57e 13bd
00000360: 4407 1e3e 928b c83c 24f9 b43d de48 e7bb
00000370: cac0 aa3d eee3 d9bc 1ed1 fcbc d01f f83c
00000380: c249 4fbc 9138 51bd 5108 08bd 5c6a 3d3c
00000390: 6b45 24bd 2618 953d d3a6 24bd 65b8 af3b
000003a0: 5ade faba 322f 0cbc 784d 56bd d790 20bb
000003b0: 3729 a53b 3d98 3abd 6a33 453d 2fd9 963c
000003c0: 9b95 e4ba 9003 85bd d39c abbc f489 553c
000003d0: 154a 3d3e d797 833d ac33 8f3c c90e 683c
000003e0: 4c9e 4a3c bcb1 313c 012d 343d f3f2 cfba
000003f0: 802e 333a 7934 9f3d 369f af3c 6072 38bd

weight f4 [100, 256]
0.054040387 -0.026931606 -0.080016226 0.06058489 0.01503478 -0.053084627 0.075058915 -0.029508254
-0.08251446 -0.0745071 0.026335806 -0.054874033 0.0084104845 0.024275053 -0.09453978 0.095318
0.0136423865 0.012996582 0.0038539243 0.021943659 0.07401315 -0.010113634 -0.065928996 0.0572998
0.12422762 0.04299118 0.18264543 0.0674659 -0.0032917159 -0.0020207393 0.04284547 -0.016067373
-0.20600031 0.064440474 0.07510755 0.00698118 -0.2164871 0.0057499944 0.09281936 0.07000763
-0.15992273 0.042820122 -0.12413545 0.020877033 0.0043580867 -0.016750485 -0.09575642 0.100096986
0.082985 0.0006552467 0.044735793 0.08668828 -0.024780508 0.049241297 -0.02032648 -0.062081777
-0.0015786693 -0.22312614 -0.029027121 0.038578145 0.044585347 0.104580656 -0.0017896526 0.12114589
-0.061106402 0.02724956 0.031499002 0.0017094511 -0.10713227 0.08964222 0.07081459 0.07231818
0.13922238 0.07919227 0.083166815 -0.028867468 0.04712766 0.06370886 0.050069157 -0.018708605
0.019368084 -0.032821905 0.015234292 0.029650148 0.054274213 0.0036439428 -0.05382151 0.010464643
-0.10605394 -0.03600369 0.07927817 -0.053184554 0.00589815 -0.074557886 0.039319873 0.020788772
0.007188271 -0.027686706 0.0019476152 -0.07960266 0.044539604 -0.025724845 -0.06322882 0.07810801
0.060257882 0.053335093 -0.08772532 0.06382595 -0.035052765 0.01651297 0.07679702 0.063935086
-0.029835181 0.08184525 0.0015516042 0.048194036 -0.033622865 -0.03522858 0.0013863359 -0.043486066
-0.007259199 -0.015238973 0.002174691 -0.008048947 0.08633593 -0.011669603 -0.09408049 0.07670775
-0.09517052 -0.02163677 -0.031929642 0.031800862 0.00029185627 0.012890318 -0.04794321 0.07388881
0.04578785 -0.09464121 0.09115047 0.0066409716 0.028126525 0.011399483 -0.03338694 0.033371255
-0.026602333 0.040807955 0.03740776 -0.04788171 -0.014047935 0.026767889 -0.07742634 0.062282853
-0.048754513 0.09454746 0.07446684 0.07067665 0.076740526 0.21183775 -0.21429631 -0.028325414
0.0013941432 0.027769038 -0.08657636 -0.018693937 0.03993991 -0.000805546 -0.085959844 0.0006524681
0.027392628 0.048078045 -0.11882949 0.011783789 0.06267141 -0.026353706 -0.021955507 -0.086647466
-0.008379725 -0.02635781 0.14011003 0.14275767 -0.015396441 0.107147686 -0.06526662 0.04293388
0.11061035 -0.06848477 -0.07214377 -0.0038082846 0.063345514 0.027413994 0.091313444 -0.06954967
0.017485762 0.14207463 -0.017989658 0.09205237 0.0028824518 0.024498349 -0.050931606 -0.004291704
-0.011069966 0.021378418 -0.025422534 -0.10552524 -0.014562671 -0.02105393 0.045774885 -0.008750872
-0.09577639 -0.03501465 0.11562609 -0.018417917 -0.01761283 0.06842737 0.046439126 -0.07364445
0.0073294993 0.031017255 -0.014509494 0.03718724 -0.03190682 -0.045267545 -0.088540636 -0.053137545
-0.0063053668 0.050393015 0.01594893 -0.025595589 0.026728177 -0.078554645 -0.03437683 0.10259918
0.21060495 -0.010785379 -0.13609044 0.0032188755 0.1289742 0.025008807 -0.08653562 0.10781144
-0.0024412163 -0.0627994 -0.01775689 0.0035348055 0.0047423695 0.031881057 -0.03306171 -0.015197666
-0.0031035165 -0.018029345 0.006115487 0.02388159 -0.038886238 -0.11912147 -0.049944226 0.02590792
00000000: 7459 5d3d ac9f dcbc 8cdf a3bd dd27 783d
00000010: 7054 763c 446f 59bd 7db8 993d 4bbb f1bc
00000020: 57fd a8bd 2e97 98bd 30be d73c 98c3 60bd
00000030: 21cc 093c 7adc c63c 129e c1bd 1536 c33d
00000040: 5184 5f3c 9eef 543c 1f92 7c3b 30c3 b33c
00000050: 3594 973d a8b3 25bc c805 87bd 32b3 6a3d
00000060: 0d6b fe3d 8517 303d 6707 3b3e 902b 8a3d
00000070: d4b9 57bb 616e 04bb bb7e 2f3d b99f 83bc
00000080: bff1 52be 5ef9 833d fdd1 993d 62c2 e43b
00000090: cbae 5dbe 736a bc3b 1418 be3d 2960 8f3d
000000a0: c9c2 23be 2764 2f3d ba3a febd 5006 ab3c
000000b0: 48ce 8e3b 5038 89bc f11b c4bd a6ff cc3d
000000c0: 0af4 a93d ddc4 2b3a e13c 373d a089 b13d
000000d0: 7e00 cbbc 3eb1 493d b883 a6bc 7649 7ebd
000000e0: 5aeb ceba 2e7b 64be 49ca edbc 1e04 1e3d
000000f0: 209f 363d 622e d63d c792 eaba 561b f83d
00000100: b54a 7abd 783a df3c 1905 013d a90f e03a
00000110: 2a68 dbbd 5796 b73d 3d07 913d 8e1b 943d
00000120: 5090 0e3e 8f2f a23d 5d53 aa3d 787b ecbc
00000130: ef08 413d ca79 823d 5115 4d3d ca42 99bc
00000140: d1a9 9e3c 4370 06bd 4099 793c dee4 f23c
00000150: a34e 5e3d 37cf 6e3b f273 5cbd e573 2b3c
00000160: cf32 d9bd 9b78 13bd 985c a23d 0cd8 59bd
00000170: 4545 c13b ceb1 98bd e00d 213d 374d aa3c
00000180: 968b eb3b 3bcf e2bc 1f47 ff3a b806 a3bd
00000190: 296f 363d e9bc d2bc 1d7e 81bd 18f7 9f3d
000001a0: f8d0 763d e675 5a3d 55a9 b3bd 2eb7 823d
000001b0: 7d93 0fbd 3546 873c c247 9d3d 66f0 823d
000001c0: e968 f4bc 7c9e a73d 335f cb3a 1c67 453d
000001d0: 21b8 09bd d84b 10bd b7b5 b53a 721e 32bd
000001e0: 93de edbb e3ac 79bc 4385 0e3b bbdf 03bc
000001f0: e4d0 b03d dd31 3fbc 46ad c0bd f418 9d3d
00000200: c3e8 c2bd 983f b1bc a8c8 02bd 9f41 023d
00000210: 4904 9939 ea31 533c 1960 44bd 0453 973d
00000220: 0a8c 3b3d 40d3 c1bd 19ad ba3d 829c d93b
00000230: 9969 e63c e6c4 3a3c bec0 08bd 4cb0 083d
00000240: 23ed d9bc 3e26 273d e138 193d 9d1f 44bd
00000250: 4f29 66bc 5548 db3c b391 9ebd 4e1c 7f3d
00000260: d0b2 47bd 19a2 c13d 1282 983d ebbe 903d
00000270: 232a 9d3d ffeb 583e 7e70 5bbe b30a e8bc
00000280: afbb b63a e57b e33c f24e b1bd 0724 99bc
00000290: 0898 233d 472b 53ba b70b b0bd 650a 2b3a
000002a0: 8166 e03c 7ced 443d e05c f3bd cb10 413c
000002b0: de59 803d bae3 d7bc 09dc b3bc 3a74 b1bd
000002c0: 1d4b 09bc 55ec d7bc 0179 0f3e 112f 123e
000002d0: 5b41 7cbc 3f70 db3d 81aa 85bd 70db 2f3d
000002e0: ae87 e23d be41 8cbd 1dc0 93bd 6a94 79bb
000002f0: 4bbb 813d 5093 e03c 8b02 bb3d 0f70 8ebd
00000300: 4d3e 8f3c 037c 113e 0c5f 93bc f485 bc3d
00000310: 84e7 3c3b c3b0 c83c a99d 50bd 6ca1 8cbb
00000320: cd5e 35bc cb21 af3c eb42 d0bc 9e1d d8bd
00000330: 4598 6ebc 4b79 acbc 727e 3b3d d15f 0fbc
00000340: 6926 c4bd 866b 0fbd 5fcd ec3d 2ce1 96bc
00000350: c848 90bc a623 8c3d f436 3e3d e7d2 96bd
00000360: 4c2c f03b e617 fe3c 3bb9 6dbc a651 183d
00000370: bab0 02bd 766a 39bd cb54 b5bd c1a6 59bd
00000380: 409d cebb e868 4e3d 55a7 823c d7ad d1bc
00000390: 0df5 da3c 42e1 a0bd b8ce 0cbd 851f d23d
000003a0: d3a8 573e 29b5 30bc 4b5b 0bbe c5f3 523b
000003b0: d011 043e 45df cc3c 9639 b1bd 3fcc dc3d
000003c0: d0fc 1fbb f99c 80bd e676 91bc 32a8 673b
000003d0: e165 9b3b b695 023d b76b 07bd a2ff 78bc
000003e0: 5e64 4bbb 47b2 93bc 6c64 c83b 53a3 c33c
000003f0: 2d47 1fbd f5f5 f3bd 5192 4cbd d93c d43c

bias f4 [100]
-0.120956756 0.059759468 0.046601467 0.042030837 0.020853974 0.0135960905 0.026478352 0.0035784168
0.12455017 0.01563634 -0.12517512 0.020003397 0.0772001 -0.04272838 0.0527151 0.023190431
-0.099884234 0.03879817 -0.023378182 -0.02808153 -0.03338484 0.026403897 -0.048226014 -0.08577377
-0.06552176 -0.013178271 0.009438452 0.09686545 -0.079049714 -0.063501395 -0.16219397 -0.07326902
0.03851492 -0.095962234 0.026024623 -0.06814106 0.042328272 -0.006434342 0.054768726 0.11299015
-0.037043437 0.088701926 0.0029311706 0.1148519 -0.055899136 0.10256715 0.0076812706 0.042389452
-0.023497196 0.043351885 0.01127493 0.013001671 -0.09373573 0.08822947 -0.057542734 -0.0742828
0.010778957 -0.13255186 0.01900227 -0.038716644 -0.020877559 -0.013002962 0.046529304 0.08971086
-0.009333274 -0.1300732 -0.09232397 -0.10375093 -0.057607673 0.047487617 0.048798956 0.046727996
0.09611219 0.042754337 0.10601037 0.025541743 -0.07209294 0.03010135 -0.15530194 0.019516176
-0.042389985 0.061192736 -0.09524626 0.038126215 0.020761011 0.10458198 0.04392376 -0.017926633
-0.07392176 -0.03493091 -0.017988868 -0.08473664 -0.08356637 0.09538146 0.071810976 -5.3596406e-05
-0.053797115 -0.053440154 0.021743437 -0.011962151
00000000: 2db8 f7bd 58c6 743d 2ee1 3e3d 8728 2c3d
00000010: f4d5 aa3c 23c2 5e3c 21e9 d83c df83 6a3b
00000020: 2914 ff3d c817 803c e82d 00be 2ade a33c
00000030: 161b 9e3d f403 2fbd caeb 573d dcf9 bd3c
00000040: 1b90 ccbd d4ea 1e3d 9a83 bfbc 3d0b e6bc
00000050: 8bbe 08bd fc4c d83c a488 45bd 29aa afbd
00000060: 4630 86bd ade9 57bc bda3 1a3c 6561 c63d
00000070: d1e4 a1bd 050d 82bd 2d16 26be 110e 96bd
00000080: d2c1 1d3d d987 c4bd 9731 d53c 8a8d 8bbd
00000090: 6960 2d3d 2cd7 d2bb 2c55 603d 6167 e73d
000000a0: dcba 17bd 5ba9 b53d e218 403b 7937 eb3d
000000b0: 7ef6 64bd ba0e d23d 2bb3 fb3b 90a0 2d3d
000000c0: 317d c0bc bf91 313d 7cba 383c f604 553c
000000d0: 85f8 bfbd a7b1 b43d eeb1 6bbd 9521 98bd
000000e0: 399a 303c adbb 07be a6aa 9b3c 5895 1ebd
000000f0: 6a07 abbc 600a 55bc 8395 3e3d 54ba b73d
00000100: 97ea 18bc e931 05be 5914 bdbd 5e7b d4bd
00000110: 06f6 6bbd 6082 423d 6ae1 473d db65 3f3d
00000120: 78d6 c43d 2c1f 2f3d f71b d93d eb3c d13c
00000130: 77a5 93bd 1b97 f63c 7907 1fbe 63e0 9f3c
00000140: 1fa1 2dbd 3ca5 7a3d 7910 c3bd 3c2a 1c3d
00000150: ff12 aa3c 142f d63d 67e9 333d e0da 92bc
00000160: 4b64 97bd b713 0fbd 645d 93bc 678a adbd
00000170: d824 abbd 5b57 c33d a211 933d b4cc 60b8
00000180: 5d5a 5cbd 10e4 5abd 4b1f b23c e6fc 43bc

weight f4 [10, 100]
-0.06997131 -0.0459405 0.12559062 0.009240783 0.134464 -0.062196117 0.014451225 -0.12206517
0.045763813 -0.15223613 0.054338865 -0.058122735 0.057916146 0.029700056 -0.16767679 0.11896327
0.19906142 0.09753708 0.15423281 -0.10507413 0.12808937 0.09320406 -0.0835853 -0.016400864
0.11638466 -0.047924366 -0.09020602 -0.14749902 -0.06589786 -0.015523302 -0.021869028 0.029083865
0.032114565 0.111994 -0.019042542 0.07098323 0.06918936 -0.048529275 -0.22925957 -0.028720178
0.09026898 0.07472837 -0.07718324 0.027935753 0.12567839 -0.06573505 -0.05742393 0.07855872
-0.09337149 -0.08833204 -0.06110286 0.038086843 -0.20157549 -0.21840523 0.10809363 0.016879812
-0.075617574 -0.118368134 -0.0059548235 -0.09727204 -0.072295375 0.032341745 -0.09226674 -0.16385545
-0.025457865 0.044662885 0.10824212 0.1811186 -0.11243959 -0.21484789 0.047287326 0.010208222
-0.026163397 0.07914581 -0.1200441 -0.102436565 0.0900528 0.1990646 0.09401886 -0.063119724
0.08997592 -0.17866305 0.12500489 0.112092115 -0.0014300077 0.06611512 0.049863927 0.01439475
0.04254447 0.027860183 -0.06927282 -0.046678197 0.010720275 -0.20673877 -0.24224289 -0.14339261
0.079673015 0.05158194 0.08925308 0.07555992 0.14042504 -0.17040733 0.04117158 -0.051363293
0.12199876 -0.017787097 -0.15614425 0.2139287 0.061707202 -0.2019193 -0.061104026 0.0047127595
-0.25153083 -0.007485685 0.12544104 0.08031809 -0.076652616 -0.10224575 0.044379544 0.18586026
-0.18947068 0.24762799 0.3376258 -0.03537096 -0.042404115 -0.0076219947 0.11445287 0.02470422
0.061665602 0.09631658 -0.066103004 -0.029847492 0.087000325 -0.075644664 -0.18628778 -0.26995504
-0.060714785 -0.01306571 0.009022265 -0.0414943 0.104897514 -0.024680108 -0.050579052 -0.25247613
-0.015582476 -0.31217435 0.043049343 -0.22248496 -0.17069583 0.04752117 -0.10096973 0.21337548
-0.040312987 -0.0069734934 -0.20585641 -0.08152374 -0.1484599 0.06462095 -0.18879804 0.13405839
-0.030841056 -0.13635083 -0.27065927 -0.15686756 -0.1709775 0.024386667 -0.00086567446 -0.09981661
0.088161916 -0.18179685 0.0930595 0.15208784 -0.017583352 0.06759759 -0.18736656 -0.042368315
0.010240821 -0.1237074 0.15457895 -0.10966138 -0.124436624 -0.11198951 -0.21169713 0.05255651
0.13435216 0.05213915 -0.04900798 0.036152057 0.12897484 0.05273999 -0.055798538 -0.0049586543
0.07608207 -0.16619676 0.016106997 0.009225615 0.082847394 -0.02944977 -0.08104202 -0.13317366
0.04890955 0.06862337 -0.013327673 0.113346145 -0.056570824 -0.03842564 0.093391545 -0.13650008
0.0004520135 0.0629291 -0.037896078 -0.23334819 0.13168885 0.12793683 -0.07608941 -0.026618587
0.0010256213 -0.087226145 0.014068981 0.007590091 -0.037187297 -0.15979204 -0.18753509 -0.0053896504
0.092673585 -0.007984256 -0.18691474 -0.17006221 0.18884782 -0.16106333 0.03499877 0.21806534
-0.1060039 0.19906689 -0.18020836 0.10932119 -0.027854344 0.05030364 -0.07868125 -0.1344273
0.0048818085 -0.0993693 0.17714773 0.05808294 0.075399674 0.05710348 0.102082685 0.10276808
-0.005885667 -0.00045569823 -0.027800487 0.063187264 -0.11110218 0.024125902 -0.04156777 -0.12314171
00000000: 1e4d 8fbd 1b2c 3cbd d49a 003e a766 173c
00000010: eeb0 093e 5bc1 7ebd d5c4 6c3c 4efd f9bd
00000020: d672 3b3d cae3 1bbe 6e92 5e3d 1b12 6ebd
00000030: 7b39 6d3d 884d f33c 77b3 2bbe 04a3 f33d
00000040: c2d6 4b3e 85c1 c73d 35ef 1d3e 1b31 d7bd
00000050: dc29 033e c5e1 be3d c52e abbd 1b5b 86bc
00000060: 155b ee3d 574c 44bd efbd b8bd fc09 17be
00000070: 75f5 86bd 7355 7ebc ad26 b3bc 4941 ee3c
00000080: 908a 033d 1c5d e53d 1bff 9bbc a85f 913d
00000090: 27b3 8d3d a2c6 46bd 05c3 6abe 9446 ebbc
000000a0: f1de b83d 300b 993d 3f12 9ebd 85d9 e43c
000000b0: d6b1 003e 19a0 86bd 5b35 6bbd 65e3 a03d
000000c0: 8d39 bfbd 6ee7 b4bd fe46 7abd f300 1c3d
000000d0: ce69 4ebe 9fa5 5fbe 3160 dd3d 8847 8a3c
000000e0: 63dd 9abd fe6a f2bd ae20 c3bb 9036 c7bd
000000f0: 990f 94bd c778 043d 58f6 bcbd b9c9 27be
00000100: 038d d0bc 6ef0 363d 0bae dd3d 2777 393e
00000110: ba46 e6bd 1601 5cbe 5bb0 413d 6340 273c
00000120: 9f54 d6bc 3317 a23d aed9 f5bd 43ca d1bd
00000130: 9a6d b83d 97d7 4b3e f68c c03d ea44 81bd
00000140: 4c45 b83d 72f3 36be 4801 003e 8d90 e53d
00000150: 196f bbba 5d67 873d 1e3e 4c3d f5d7 6b3c
00000160: 1c43 2e3d 0a3b e43c e9de 8dbd a331 3fbd
00000170: 18a4 2f3c 54b3 53be 850e 78be 83d5 12be
00000180: 9b2b a33d 9647 533d 52ca b63d 29bf 9a3d
00000190: 95cb 0f3e 427f 2ebe 88a3 283d 5162 52bd
000001a0: 7cda f93d 3fb6 91bc 47e4 1fbe 2010 5b3e
000001b0: b1c0 7c3d efc3 4ebe 3748 7abd 7e6d 9a3b
000001c0: a6c8 80be 7a4a f5bb 9e73 003e d07d a43d
000001d0: 0cfc 9cbd 3866 d1bd 53c7 353d 2752 3e3e
000001e0: 9a04 42be 3192 7d3e 4add ac3e 24e1 10bd
000001f0: f0af 2dbd edc1 f9bb 4466 ea3d 8160 ca3c
00000200: 1295 7c3d a141 c53d 0361 87bd ba82 f4bc
00000210: 3a2d b23d 97eb 9abd 39c2 3ebe 8c37 8abe
00000220: 11b0 78bd 8f11 56bc 1fd2 133c edf5 29bd
00000230: 82d4 d63d f02d cabc fb2b 4fbd 8d44 81be
00000240: a44d 7fbc 51d5 9fbe 8254 303d 19d3 63be
00000250: e3ca 2ebe 8fa5 423d 38c9 cebd 1a7f 5a3e
00000260: 3b1f 25bd e781 e4bb 06cc 52be ebf5 a6bd
00000270: df05 18be fd57 843d 4654 41be 9a46 093e
00000280: 62a6 fcbc 8d9f 0bbe da93 8abe e4a1 20be
00000290: ba14 2fbe 8cc6 c73c 6eee 62ba a76c ccbd
000002a0: 3c8e b43d f428 3abe fb95 be3d eabc 1b3e
000002b0: f60a 90bc 9b70 8a3d 05dd 3fbe 668a 2dbd
000002c0: 1ec9 273c 4e5a fdbd f249 1e3e 2596 e0bd
000002d0: a1d8 febd c25a e5bd 22c7 58be 7f45 573d
000002e0: 9d93 093e dd8f 553d 97bc 48bd 2e14 143d
000002f0: fb11 043e e305 583d 028d 64bd 357c a2bb
00000300: ebd0 9b3d 7c2f 2abe d2f2 833c 0927 173c
00000310: e5ab a93d a540 f1bc 5cf9 a5bd ad5e 08be
00000320: 6155 483d 698a 8c3d 505c 5abc 0622 e83d
00000330: cfb6 67bd 3464 1dbd 1144 bf3d adc6 0bbe
00000340: 3afc ec39 f9e0 803d eb38 1bbd d4f2 6ebe
00000350: 71d9 063e df01 033e c4d4 9bbd 390f dabc
00000360: 246e 863a 9fa3 b2bd 9581 663c 4cb6 f83b
00000370: b551 18bd 86a0 23be 3309 40be aa9b b0bb
00000380: a6cb bd3d 66d0 02bc 9466 3fbe ca24 2ebe
00000390: 5361 413e c9ed 24be df5a 0f3d 854c 5f3e
000003a0: 9318 d9bd 31d8 4b3e 8a88 38be cae3 df3d
000003b0: cb2e e4bc 310b 4e3d a323 a1bd 4fa7 09be
000003c0: 94f7 9f3b 2282 cbbd 3766 353e 60e8 6d3d
000003d0: 256b 9a3d 57e5 693d ba10 d13d 1278 d23d
000003e0: 8edc c0bb c8ea eeb9 d9bd e3bc 5368 813d
000003f0: 8a89 e3bd afa3 c53c f742 2abd b931 fcbd

bias f4 [10]
-0.060310926 -0.08547561 -0.081020944 0.051607072 0.020294584 0.054254588 -0.084746644 0.016393265
-0.013663596 0.021664944
00000000: 9708 77bd d60d afbd 4fee a5bd f061 533d
00000010: d440 a63c 0f3a 5e3d a68f adbd 2b4b 863c
00000020: 46dd 5fbc ae7a b13c

weight f4 [9]
1.0530653 0.8926383 0.96974957 0.96338594 1.1732863 0.90284216 0.9988764 0.90400034
0.9714898
00000000: d8ca 863f f283 643f 8241 783f 76a0 763f
00000010: 3f2e 963f aa20 673f 5db6 7f3f 916c 673f
00000020: 8eb3 783f

bias f4 [9]
-0.12936455 -0.041594166 0.054426096 -0.050726023 -0.10854041 -0.092327416 0.0017325552 -0.03184731
0.001532031
00000000: 2478 04be a55e 2abd e6ed 5e3d 17c6 4fbd
00000010: 6f4a debd 2816 bdbd e816 e33a 5372 02bd
00000020: 6ece c83a

running_mean f4 [9]
0.10377676 0.017886061 0.091900654 0.026498083 0.069415525 1.320841e-06 0.1113369 0.31757963
1.2412407e-10
00000000: e988 d43d ca85 923c 6936 bc3d 8212 d93c
00000010: ba29 8e3d c047 b135 9a04 e43d cc99 a23e
00000020: d279 082f

running_var f4 [9]
0.004302439 0.002109111 0.0059368745 0.0029135111 0.002723011 6.2058696e-08 0.002297209 0.033598855
4.678229e-13
00000000: 79fb 8c3b 0339 0a3b 1d8a c23b 9bf0 3e3b
00000010: 8b74 323b 2145 8533 c68c 163b f49e 093d
00000020: 31ae 032b
